model.pth (torch, 146861 bytes, 10 tensors)

weight f4 [128, 169]
00000000: 4504 08bd a813 aabd 49ab 863d 8e65 f4bc
00000010: 0a21 1fbc f182 cfbb 1289 9e3d 6c9c 89ba
00000020: cbc7 21bf 7935 23bd 25ee bebd a8b9 583e
00000030: cd1f 90bb 4317 edbc 2a6a 303d 13e5 efbc
00000040: 78ba 863c 4c69 8a3c 00b6 3cbc 37e0 1fbd
00000050: a75a d7bc 17cf 95bd 5d74 283d 20c4 1abc
00000060: 2fe1 0abd b271 c33d b00c adbc 517f f8bb
00000070: b43d 79bd ddf5 693d c3d7 e93c 9270 08bc
00000080: 44a6 903d 6ac6 c83c 8003 5cbd 60c8 273c
00000090: cfdb adbc a9cf 8139 7ae9 73bd 966c a43c
000000a0: 4baf e63c 582a 5c3d e402 25bd 7b36 0b3d
000000b0: 37eb 833d 474c ad3b 2b15 b3bb e83b 043d
000000c0: 2590 c63c 2165 0a3d 0eb5 653c 959e 113d
000000d0: e13c 5cbd 0421 ec3c 820d fcbb ba70 c1bc
000000e0: f2cf 943d 55f0 df3d 9869 1b3c d06b 5dbd
000000f0: e180 5e3c 1624 16bd bb82 1ebd 3a85 84bc
00000100: 9062 a0bd bffd 8bbc f5b1 96bd 29c7 94bd
00000110: 5981 693c 96a6 0ebb 70c7 4fbd 2d23 c5bc
00000120: d18b b23c 9bfe c1bc aba9 913d b199 963d
00000130: e1f4 ffbc 2523 b23d b0ba 76bd 1b97 49bd
00000140: 5d64 bf3c 61d2 7e3c 4202 603c 0513 1a3d
00000150: 584f ccb9 9f25 88bd ffe9 293e 98fa c33c
00000160: 31f6 4c3b d71a 82bc e1dd 15bd caaf ecbd
00000170: a2c7 77bd 3267 543c 5602 bc3b c88a 5dbb
00000180: 793d 853c 7f07 9b3c bf8c 93bc aab1 bcbc
00000190: 23b8 4a3d 2d69 8ebc 7e47 1fbb c14e 133c
000001a0: a4a6 d03d 90ff fb3d 21ac 94bc 88f1 603d
000001b0: 8f31 23bd db36 04bd a3b4 0d3d c515 7eba
000001c0: 7622 eabc 397d e8bc fdf4 a83d 4aff c93c
000001d0: fb08 67bc c6c0 ea3c 9d6a 5ebd e76e 2abe
000001e0: 1996 d0bd 3303 c03c 73d3 e63d e535 a3bc
000001f0: a4b3 cebc 84fa c0bc 910c 8dbd cd52 a53c
00000200: 7331 95bc f40c abbd 900a 913d 79b3 353d
00000210: a333 793c 4988 783d 3cd7 0e3d fd1e 113d
00000220: 73cf 7a3d e075 b53d 7bb0 96bd d450 99bd
00000230: ce07 743d ab48 63bd 51ef a4bc 3664 8fbd
00000240: 2d35 e6bc f84f 9cbd 27f4 973d 36bf 663d
00000250: 8069 033e 2c65 68bd c7d2 053c ccae 95bd
00000260: fd44 333d b7a5 ef3b 1fc4 c6bb f73d b3bc
00000270: 4639 dbba 2298 c53c d21b 963d 5783 1b3c
00000280: 067c 01bc 7710 24bd 1d7b 2ebb 1629 e6bc
00000290: e434 adbc 3398 38bd dca1 9c3d 92cc a93d
000002a0: 97f8 01be baf7 12be 5353 32bd 8801 133d
000002b0: fac0 15bd cc37 11bd 9878 863d 3e59 05bc
000002c0: bd8d 7e3d 77f6 0dbf 4d4c e2bd bbfb 7abd
000002d0: baa3 033d 6858 063d 8a40 233e 5b15 d23b
000002e0: 8176 d3bb 5741 9a3c fbc6 2c3d 6dd2 4a3c
000002f0: 97b8 973c 9a24 e6bb b235 1b3c f14a 523a
00000300: d7fe 83bb a1cd 0ebd 5302 3e3d 94c0 d9bc
00000310: 7c00 83bd e812 96bd 6009 583d dfc3 00bc
00000320: 8412 3f3d fa65 dd3c bcf2 b83d 8194 903c
00000330: e17e 9bbd 64f2 41bb aa21 7d3d a3b2 993c
00000340: 240e 6abc 2c24 b33c 4a39 5bbd c82e c0bd
00000350: e078 6d3d 1548 8f3d d061 523c a27d 35bd
00000360: 4fe5 dd3c ab14 4dbd 6a27 823d 2a69 08bd
00000370: 556f b43d 17ec 91bd 89b6 b73d 4459 013d
00000380: fbd9 a7bd 64f5 143c 2454 6bbc 98d6 83bd
00000390: ada4 cdbc 752f 8bbc 1ae1 503d 14c5 723d
000003a0: 62fe 103c 3c38 8e3b b852 b83d 66aa 363b
000003b0: cf21 c5bd 79ad 3d3d 200c acbc 39f7 9ebc
000003c0: a523 473d d69b 62bd 6de1 813d 876e 993d
000003d0: 672b 9f3c 1a78 a7bd 20da 883d c711 31bd
000003e0: dc6c 5abc a62a 8dbc 721d 6fbc bc75 32bd
000003f0: 95d4 123d acd8 4dbd 0ecf e43c 18e4 e1bc
-0.033207197 -0.083045304 0.06575639 -0.029833581 -0.009712467 -0.006332748 0.07740988 -0.0010498888
-0.63195485 -0.039845917 -0.09322766 0.21164572 -0.004398322 -0.028941756 0.043069996 -0.029284036
0.016446337 0.016895913 -0.011518002 -0.039032187 -0.026288344 -0.0731489 0.041126598 -0.009446174
-0.033906158 0.0954317 -0.021124214 -0.0075835367 -0.06084986 0.05711924 0.028545266 -0.00832762
0.07062963 0.024508674 -0.053714275 0.010240644 -0.021222977 0.00024759516 -0.059548832 0.020071309
0.028159758 0.05375132 -0.04028596 0.033987503 0.06441348 0.005288634 -0.00546517 0.032283694
0.024238655 0.03378785 0.014020218 0.035551626 -0.053768996 0.028824337 -0.00769204 -0.023613323
0.07266225 0.109345116 0.009485625 -0.054057896 0.013580532 -0.036655508 -0.038698893 -0.016176809
-0.07831299 -0.017088769 -0.07358161 -0.07264549 0.01425203 -0.0021766773 -0.050727308 -0.024064625
0.021795185 -0.023680976 0.0711244 0.07353533 -0.031244697 0.086981095 -0.060236633 -0.04921637
0.023363287 0.015553088 0.013672413 0.037615795 -0.00038969028 -0.06647801 0.16593169 0.023923203
0.0031274671 -0.015881939 -0.036588553 -0.115569666 -0.06049312 0.012964057 0.005737583 -0.0033804644
0.016264664 0.018924473 -0.018011449 -0.023033936 0.049492013 -0.017384136 -0.0024304087 0.008990944
0.10188034 0.12304604 -0.018148484 0.054917842 -0.039842185 -0.032278877 0.034596097 -0.0009692575
-0.028580885 -0.028380023 0.08249853 0.024657864 -0.014101262 0.028656375 -0.054300893 -0.16643868
-0.10184879 0.023439026 0.112707995 -0.01992316 -0.025232144 -0.023556955 -0.068871625 0.020181084
-0.018212056 -0.0835208 0.07082093 0.04436061 0.015210065 0.060676847 0.034873232 0.035429943
0.061232995 0.088603735 -0.0735788 -0.0748612 0.059577756 -0.055489223 -0.020133646 -0.070015356
-0.028101528 -0.0763244 0.07419615 0.056334697 0.12833214 -0.05673711 0.008167929 -0.073087305
0.043766964 0.007313456 -0.00606586 -0.021880133 -0.0016725443 0.024120394 0.07329525 0.009491763
-0.007903105 -0.040054765 -0.0026623674 -0.028095763 -0.021143384 -0.045067023 0.0764806 0.08290972
-0.12692486 -0.14352313 -0.043536495 0.035890132 -0.03656099 -0.035453603 0.0656597 -0.008138953
0.06214689 -0.554542 -0.110497095 -0.061275225 0.032138564 0.032799155 0.15942588 0.006411237
-0.0064533358 0.018829985 0.04218195 0.012379271 0.018520636 -0.007023406 0.009473251 0.00080220314
-0.004028182 -0.03486407 0.046388935 -0.026581086 -0.06396577 -0.07327825 0.052743316 -0.007859199
0.046648517 0.027026165 0.09030673 0.017648937 -0.075925596 -0.002959394 0.061799683 0.018761938
-0.014285598 0.021867834 -0.053521432 -0.09383923 0.057976604 0.069961704 0.012840703 -0.044309266
0.027086882 -0.05006854 0.06355174 -0.033303417 0.088102974 -0.07125109 0.08970363 0.03157927
-0.08195873 0.009091709 -0.014363322 -0.06437415 -0.025102938 -0.016990403 0.050995924 0.05926998
0.008849712 0.0043401998 0.09000152 0.0027872561 -0.09625589 0.046308015 -0.021001875 -0.019404994
0.048617978 -0.055324398 0.06341825 0.074917845 0.019429876 -0.081772044 0.06682229 -0.043229844
-0.013331618 -0.01723225 -0.014594423 -0.04356931 0.035847265 -0.050255463 0.027930763 -0.027574584

bias f4 [128]
00000000: c43a bd3d 3fcd 2e3e 7ed5 c5bd 68cf 483d
00000010: b1cd b6bd 95b5 cbbd 4532 00be 438d f8bd
00000020: 7698 453d 5288 1dbe 7e7c 0bbe d66b 77bd
00000030: 3bef 61bc 06ad 1cbd 236a 253c ef31 49bc
00000040: 1a2c 343c 1184 743c bf7b b7bc 5f2b 95bd
00000050: a595 efbd 0142 42bd bc82 88bd 0031 a6bd
00000060: 38a6 d7bd ad40 40bd 1f20 19be ba61 b5bd
00000070: 2294 d0bd dd68 41bd a168 24bd c945 5bbd
00000080: c64f 89bd 1dd2 8fbd 23a7 cebb 3474 fdbd
00000090: 7a40 bfbd 135b 10be 9f41 8fbd 1c17 94bd
000000a0: e0dc 953b 964c 0fbe f4d4 66bc 8260 bbbd
000000b0: 6646 1bbe 601d 7fbe bbf6 0fbe b651 e8bd
000000c0: 2247 ccbd 8cc6 87bd c065 63be b184 e6bc
000000d0: ba76 4abe 3b45 da3c 910a 1e3e f8f5 bdbd
000000e0: 0ecb d33d 3953 333d c783 483d 5c9e 65bd
000000f0: 77ae 22be ad55 b8bd 45dc edbc 5916 c2bd
00000100: d35c b6bd 0a42 4ebe 154a 7abc e342 34be
00000110: daf9 ffbd 307d 0ebe 5f25 a8bd 98ea fdbd
00000120: e810 cb3c b985 3fbd b33c 53be 912d 843d
00000130: 55d3 d53d 7988 463d bc14 39bd 00af dcbd
00000140: 7895 83bd 1ec1 113d ab11 4dbe 9e86 1ebd
00000150: d5b9 c7bd c38e 45bc af0b 11be 60de b7bd
00000160: fa5a 29be 060e 2fbc bec0 483c 30db 2ebe
00000170: 3b83 7f3d 1676 d6bb 6908 c4bd 1ddc b7bd
00000180: 9f26 8d3c b322 843d 224e c4bd 6f04 5abe
00000190: 74df 71bd eac5 e33d f4c7 2b3e 38c5 05be
000001a0: 6872 11be cffb 5d3d bff2 c73d 050f 44bd
000001b0: b215 14be 31f3 05bc a20c 813d 4d24 bfbd
000001c0: a3b9 b73c 5a11 21be 012e c4bd a976 ac3d
000001d0: 24a2 663b cb5d 5fbe bd91 053e aa27 c2bd
000001e0: 137a 02be 9481 14be 1ccb 833d 5486 6fbd
000001f0: 877c 53bd 1cc0 89bd b413 44be 89ea 5bbd
0.09239724 0.17070483 -0.09659861 0.049025923 -0.08925951 -0.099467434 -0.12519176 -0.121363185
0.0482411 -0.15384033 -0.13621709 -0.060405575 -0.013789947 -0.038250946 0.010096106 -0.0122799715
0.010996843 0.014924065 -0.022397874 -0.07283663 -0.11698464 -0.047426227 -0.066655606 -0.08114815
-0.105297506 -0.04693668 -0.1495366 -0.088565305 -0.10184504 -0.047219146 -0.040138844 -0.05353335
-0.06704669 -0.07022498 -0.0063065453 -0.123756796 -0.0933847 -0.14097242 -0.06994938 -0.0723097
0.0045734495 -0.13994059 -0.014088858 -0.09149267 -0.15163574 -0.2491355 -0.14058964 -0.1134371
-0.09974505 -0.06629667 -0.22206783 -0.028139444 -0.19771853 0.02664434 0.15433718 -0.092754304
0.10341464 0.04378054 0.048953798 -0.056059226 -0.15886866 -0.09000716 -0.029035697 -0.09476919
-0.089044236 -0.2014238 -0.015276452 -0.1760364 -0.12498827 -0.13914943 -0.08210253 -0.12398261
0.024788335 -0.046758387 -0.20628624 0.064540036 0.10440699 0.048469994 -0.04518579 -0.10775566
-0.06424993 0.03558456 -0.20026271 -0.0387026 -0.097522415 -0.012057963 -0.14164613 -0.089779615
-0.16538611 -0.010684496 0.012252985 -0.17075801 0.06238101 -0.0065448387 -0.095719166 -0.0897753
0.01723033 0.06451931 -0.09585215 -0.21290754 -0.059050992 0.111217335 0.16775495 -0.13063514
-0.14203799 0.05419522 0.09763097 -0.047865886 -0.14461401 -0.008175657 0.06301238 -0.09333096
0.022427386 -0.15729275 -0.09579087 0.0842107 0.0035191858 -0.21813123 0.13043876 -0.094802216
-0.1274188 -0.14502555 0.064352244 -0.058477715 -0.05163243 -0.06726095 -0.19148141 -0.053690467

weight f4 [64, 128]
00000000: 40c3 a6bd 94ad 3cbd 4a76 563d 579f 1ebd
00000010: 08de 8d3c 59f6 843d d4b1 abbc 82e8 0f3e
00000020: 7fdd 52bd f23c 7b3c 35f5 7e3d d9e2 04bd
00000030: c3db cdbc 23a8 b8bd af3a 31bd dc42 abbb
00000040: 30c6 263e bf74 843c a00a 7abd d170 d0bc
00000050: d1a8 84bd de51 87bd e173 e2bd 0073 c03d
00000060: 323d 17bd 1307 9f3a 681e a9bd ff32 5b3d
00000070: 6e8c 383d 1ffb 31bd 0769 80bd e854 dbbc
00000080: b0c3 2fbc 8771 45bd 0b26 823c f694 37bd
00000090: 2295 a83d 81a6 cdbd 908e 91bd f399 e7bc
000000a0: 137a 46bd bbe3 f0ba 8c7e 263c ce0d b6bb
000000b0: 6bc1 40bd 8f9b 193d 07f4 4dbb 886f 80bc
000000c0: 2880 503d a9b0 763b 2091 c6bc 0d69 ad3d
000000d0: 0d72 a5bd db46 1f3d 9e7a 243d cc39 a1bc
000000e0: 16c1 093d 958c 67bd 8d57 d1bd 7c07 f83d
000000f0: 625c 3dbc e81b 723b 7590 2cbd cdca 7abd
00000100: 7e36 8f3d eafc a93d 03df dbbd aae8 cb3a
00000110: 554c 7ebd 20e6 733d 46a0 56bd b716 0c3e
00000120: 17e7 eabd 0495 a23d e1ee 963c 1afa 863d
00000130: 96b5 4bbd 1325 afbd 6b2c db3d ddeb 9fbd
00000140: 9582 3b3b b88e ffbc 4b10 813c 1eaa 9abd
00000150: cb4d 423d 57c1 f3bc ce51 82bc a07f b4bc
00000160: 5ff6 5e3d 3c4b d6bd 2bd7 d2bd 2421 03be
00000170: 162f 13be 8af1 fdba c0f3 ae3c 3d9e c83d
00000180: 4ac8 5abd 9494 1bbc d808 f63d 2b78 09bd
00000190: 741a e9bd 037b 7cbd b3bb d0bd bec2 ba3c
000001a0: 453b 08bd b6b4 9ebd 06a9 913d 59ab cf3c
000001b0: cb24 2dbd 2fe3 683d 86af c93d 63e1 083d
000001c0: a08b e03c acd4 aa3d 4176 98bc 1bf0 96bd
000001d0: eaad b83d fd6d 983d d2d7 77bd 1064 85bc
000001e0: d649 45bd 86d1 d43c 7410 703d 832f 573d
000001f0: 3bb3 cebc 1398 bbbd 3592 33bd 1707 083d
00000200: c405 aabd 9e33 b43c 91e9 9b3c fb0e a5bd
00000210: a899 cb3c c210 b7bd d123 c2bd 2f78 84bd
00000220: 95bd ffbc 6ee5 8e3c 3f44 c3b8 548e 903d
00000230: f52a e2bd e96c 0b3d 7964 8cbc 5524 9d3c
00000240: b03b ba3d 8b1b 72bd 1f88 b9bd 3ed9 00be
00000250: 5eea e2bc 2f07 e63c eadf 983d 6e25 f0bd
00000260: 91d2 97bd a3fd 363d 760a c2bd 52c8 44ba
00000270: 96d0 6dbd a52b 00bd 013e 17bd b61f ef3c
00000280: 2a7c a13c d3fe 90bb 4459 b9bd 0104 7f3d
00000290: 65b5 8c3d c804 fabd 430b 7c3d e6f5 623d
000002a0: 4ad0 3a3d 7c28 96bc e4f9 953c bb38 453c
000002b0: 8660 89bc ade1 d03c 4a44 cfbb b8c7 323d
000002c0: 380f c83c 7d65 7bbd 952e 41bd 8b59 c23c
000002d0: 31ca 693d 1f89 8ebd 5a45 05bc 9fdc d33d
000002e0: d1b8 a4bd 8060 bdbd e883 303d 0e1e f9bc
000002f0: 0a6b 23bd be78 9e3b a557 dfbc d07f 7c3d
00000300: 44e6 e1bd 322b 28bd 55af f5bd 8fe1 a6bc
00000310: 378d 333b 48d2 033c 958e 85bb 43c2 283d
00000320: 7924 91bd 784a 813d cbc5 42bd d181 95bd
00000330: 5e52 3dbd cd66 5f3d 931b 9d3d 5823 be3c
00000340: 420a 1abd fcb7 9cbc 1881 7dbd bcf2 993c
00000350: b3eb 47bd 119d ac3a 2787 a23c dacf 3a3d
00000360: 1531 9dbc 2e45 87bb 1402 66bd ede3 41ba
00000370: 4eeb fe3c 45be 6cbd e2b8 98bd 5298 1dbd
00000380: d34b e23c 551e 6ebc 88eb 383c aac7 dcbb
00000390: a19f c3bc 1169 1bbd 9866 8dbd e99a dbbd
000003a0: c5d2 263c 3475 d23c fb0d 5cbd 4ebc 98bb
000003b0: f1f1 e9bc 2f61 a7bd 4e16 173a 3f3c 14bd
000003c0: 2805 0f3d 315b cb3c 18e5 c73c 4e0a ac3d
000003d0: faf0 88bd 515e bfbd c0e4 bebd 76cd 3fbd
000003e0: b3e9 9a3c e5aa 66bd c700 893d 4c79 2abd
000003f0: 898c 86bd b9a1 0e3c d557 60bd da0e 763c
-0.0814271 -0.046063974 0.052358903 -0.038726177 0.017317787 0.064922996 -0.020958818 0.14053538
-0.051480766 0.015334355 0.062245566 -0.0324429 -0.025129205 -0.090164445 -0.043268856 -0.005226476
0.1628654 0.01616895 -0.06104529 -0.02544442 -0.06477512 -0.06607412 -0.110572584 0.093969345
-0.036923595 0.0012132846 -0.08257753 0.05351543 0.0450558 -0.04345238 -0.062700324 -0.026773885
-0.010727808 -0.04820397 0.01588728 -0.044819795 0.0823157 -0.10041524 -0.0710727 -0.02827165
-0.048456263 -0.0018378416 0.010162007 -0.005555845 -0.047059458 0.037501868 -0.003142597 -0.015678182
0.05090347 0.0037641919 -0.024239123 0.084673025 -0.08078394 0.038885932 0.040156 -0.01968088
0.033631407 -0.056530554 -0.10221777 0.121108025 -0.01155767 0.0036942903 -0.042129952 -0.061228562
0.069928154 0.08300193 -0.107358955 0.001555701 -0.062084515 0.059545636 -0.052398942 0.1368054
-0.11469858 0.07938579 0.018424453 0.06590672 -0.04973372 -0.08551993 0.107018314 -0.07808659
0.0028611769 -0.031195983 0.01575484 -0.075519785 0.04743747 -0.029755278 -0.015908148 -0.022033513
0.054434177 -0.104635686 -0.10294946 -0.12805611 -0.1437343 -0.0019374352 0.021356463 0.097958066
-0.053413667 -0.009495873 0.120134056 -0.033561867 -0.11381999 -0.06164075 -0.10192051 0.022797938
-0.03325965 -0.077493116 0.07112317 0.02535026 -0.042271417 0.056857284 0.098479316 0.03341807
0.027410328 0.08341345 -0.018611075 -0.07370015 0.090175465 0.074428536 -0.060508557 -0.016283065
-0.04816612 0.025978815 0.05860944 0.052535545 -0.025231948 -0.09159865 -0.043840606 0.033209886
-0.08301881 0.02199727 0.019032272 -0.08059498 0.024853542 -0.08938743 -0.09479488 -0.06468236
-0.03121833 0.017443385 -9.3110364e-05 0.07058397 -0.1104335 0.03403941 -0.017137753 0.019182364
0.09093416 -0.0591083 -0.09059166 -0.12582871 -0.027699646 0.028079597 0.07464583 -0.11725889
-0.07413209 0.04467548 -0.094746515 -0.00075066567 -0.05806025 -0.031291623 -0.036924366 0.029189926
0.019712526 -0.0044249087 -0.09050229 0.062259678 0.06870536 -0.12207943 0.061534178 0.05541029
0.045608796 -0.018329851 0.018307634 0.012037451 -0.016769659 0.025498236 -0.0063252794 0.043647498
0.02442132 -0.061376084 -0.047163565 0.023724338 0.05707759 -0.069597475 -0.0081342105 0.103448145
-0.080430634 -0.092469215 0.043094546 -0.030409839 -0.039897002 0.004836171 -0.027263472 0.06164533
-0.11030248 -0.04105682 -0.119963326 -0.020371227 0.0027397403 0.00804574 -0.004075835 0.041200887
-0.07087035 0.06313032 -0.04755191 -0.07300151 -0.04622113 0.054541398 0.07671275 0.023210213
-0.03760744 -0.0191307 -0.06189069 0.018792503 -0.048808765 0.0013169368 0.019839836 0.04560838
-0.019188443 -0.00412812 -0.056154326 -0.00073963293 0.031118061 -0.057798643 -0.074571386 -0.038475342
0.027624046 -0.014533599 0.011286624 -0.006737669 -0.023879828 -0.037941996 -0.06904334 -0.10722906
0.010182087 0.025690652 -0.05372427 -0.0046611195 -0.02855775 -0.08172833 0.00057635165 -0.036190268
0.034917027 0.024823757 0.024401233 0.08400403 -0.06686588 -0.09344161 -0.09320974 -0.046826802
0.018910265 -0.05631532 0.066896014 -0.041619584 -0.06569774 0.00870555 -0.054771263 0.015018189

bias f4 [64]
00000000: 341f dcbc 838e 35bc 2ec3 0fbe 848b 0abe
00000010: bdab c8bd c8f5 873b 24f6 7fbd 0ece a03c
00000020: d159 78bd 38cf 143d 7aad e8bd ce23 debd
00000030: 329d dabc 91eb b03d e6b9 0f3d c088 2c3d
00000040: 40f1 d13d afa6 dfbc f702 d6bd 5154 b53d
00000050: b0a6 dabd 8ed3 cfbd 0426 213e d110 61bb
00000060: ca30 80bd 6f6d 68bd 12fe 21be a04f 09be
00000070: ea61 01bd 1801 d1bd ddc2 10be 2a70 673d
00000080: b43a 7ebd 5f85 983d 7011 3ebd 4922 60bd
00000090: 47e6 bf3d 7813 9c3d fb5b 843c 7d16 ca3c
000000a0: 2994 46bd a010 9bbd 77ea b1bd ced4 97bd
000000b0: ea91 89bd 737d f93d 6e89 25bd a4eb 6fbd
000000c0: 9166 873d cdf2 14be c662 cd3d 97d9 13bd
000000d0: ea58 2d3e dcd7 16be 9343 08be 95c9 8cbd
000000e0: 70c9 503d 49e4 22bd 3409 1abe 37e8 73bd
000000f0: 45be ddbd b7ac 18be 7fee 02be 4e7a 36bd
-0.026870348 -0.011081341 -0.14039299 -0.13529783 -0.097983815 0.0041491725 -0.062490597 0.019629505
-0.06063253 0.03633043 -0.11361213 -0.10846673 -0.026686285 0.08638681 0.035089396 0.042122602
0.10251093 -0.02730116 -0.10449784 0.08853973 -0.10676324 -0.10147773 0.15737158 -0.0034342299
-0.06259306 -0.05674499 -0.15819576 -0.13409281 -0.03158752 -0.10205287 -0.14136834 0.056503452
-0.062067702 0.074473135 -0.04640335 -0.054720197 0.09370094 0.07620901 0.016157141 0.024668926
-0.04848114 -0.0757153 -0.08687299 -0.07413636 -0.06717284 0.12182131 -0.040414266 -0.058574334
0.0661136 -0.14545746 0.10028605 -0.03609618 0.1692845 -0.14730781 -0.13307028 -0.06874386
0.050973356 -0.03976849 -0.15042573 -0.05954763 -0.10827307 -0.14909635 -0.12786292 -0.044550233

weight f4 [32, 64]
00000000: 8094 0abc 76b0 54bd e35d f0bc 39c0 89bd
00000010: 6a6d 993d 1669 0c3c 7264 94bd 3282 b6bd
00000020: 0075 2bbc 39af 8ebc 3606 8f3d 8a1a 5cbd
00000030: 32cb 163e 86bf a3bd 13b8 8abd 11c0 3ebb
00000040: 317d 303c 663a 52bc e0f9 073c 31c3 81bd
00000050: 44dd f13c e029 e93c cc53 ffbd c058 68bd
00000060: 21ee 8e3d cb9c 13bd f6ff 8f3d 804d b03d
00000070: 44bc 113d d68c 8bbc 2214 0f3e 6cf6 e8bd
00000080: 4b17 c53d ed27 13be 2c95 9dbd b118 f9bc
00000090: 153d 8f3c c9d8 79bd e5ba 27bd 6263 9e3d
000000a0: 35a2 99b9 b3d5 043c 39ee 103e a665 aa3d
000000b0: d6de 293e 8d24 b9bd 6489 94bd 3d49 d5bc
000000c0: fdcb 003b 4b4e c43d a9ed e6bd 0e93 e23d
000000d0: 7571 d6bc 2cfc 6fbd c9e6 733d 2d59 d73c
000000e0: 47f4 d23d 9e45 ab3d 16d6 3a3d 6f5d 113d
000000f0: 2e1a 22ba b05a 923d 0181 99bd 2fa3 d43d
00000100: c615 123e 13c4 7dbd 9b07 f0bd c96b 353d
00000110: b841 c33d 917c e23d b5b3 c43d db55 8eba
00000120: 8adb e93d a72f 95bd e38d ff3c d720 a93d
00000130: 075f 623c c58e 8fbd 40f8 0c3d 58dc 4abd
00000140: d5c6 503d e489 59bd cab7 38bc 911a a6bd
00000150: b1ae c23d a2e9 48bd ec25 e53c c420 94bd
00000160: 0cf3 b13d 48e5 0a3e 6704 c2bd 63c7 813d
00000170: 1c3a f4bc 37ff 203d a96c c8bd 6b56 d13c
00000180: 0815 893c 6347 babd 82bc 3e3b 051d fd3c
00000190: ccfb d9bd e319 823d 830e c7bd 2de6 a63d
000001a0: 9921 88bd 1d71 203e 280a c63d 9ebc bf3c
000001b0: d277 3fbd a2f5 b5bd 5f18 21bd bdc0 74bc
000001c0: eda3 983d a81e d33d dfce 55bd 2af9 143d
000001d0: 97b8 f63d a294 a5bc 5fa7 133e 9d51 e33d
000001e0: 03b0 da3c 2dbc 803d f7fa 793d c360 933d
000001f0: c35c 03bd a290 a63c 05ee 10ba 8cfe 083e
00000200: d09d 7abd 6fb4 cbbd b62a abbd 8727 1abe
00000210: 6fd8 bebd 0f46 9c3d 9fc9 85bd 909d a33d
00000220: a7c1 5f3c 152c b53d 3009 a2bd b1cc bcbd
00000230: 3d39 33bd 2ab2 c13d be72 573c 636d 3b3c
00000240: a662 c63d c6c3 cbbc 8f40 5fbd 8306 463d
00000250: 3591 15be 0a1a 373d b8b6 863d 2bc0 8dbc
00000260: 4408 45bd 423f c53c 0129 53bd f496 693d
00000270: a6a0 953d 7f06 a5bd 172b 02be 3d30 8f3b
00000280: b8ac cf3c aa06 b2bc e6ca b5bd c32f 0cbe
00000290: 8fd8 65bd 6159 0d3d 7bf8 a5bd 179b 44bd
000002a0: 9947 c73b b7d4 53bd f443 f83c b59e 2bbd
000002b0: 25a6 593d 721a 123d 61c0 a53d 8d91 a9bd
000002c0: c170 543c c5fb 89bd 3c65 2d3d 0df5 5b3d
000002d0: 1b20 b73d 1ff5 aebc f64a dfbd e35b d7bc
000002e0: a0fd 01bc 809f 88bd 80e2 04be 79eb 603d
000002f0: dc5f f2bd 3983 55be 054b 30bd ebb1 56bd
00000300: 71b2 2a3d ea6b 6cbc 234e 4abd 8211 6b3d
00000310: a0c1 efbc a34c 8fbd bde4 55bd 6751 0b3e
00000320: 14fa 28bc c230 2f3d 4dc7 9e3d 24a1 0b3d
00000330: 625d 6f3c 5db5 b73c 66b6 30bd 314e 6cbb
00000340: 4209 64bc be3f 1ebd b344 8e3d 898e d43d
00000350: 8a6b 6d3d 9ea9 dbbc 2893 abbc 3111 193c
00000360: 7b6e 2d3d 6be3 c8bd 3c73 243d 8eef f43d
00000370: dc92 fbbc 9be9 8e3d b792 b33d 5b39 3cbd
00000380: 0f1d 903d 9f7a d7bd 1e68 d5bb 2fcf 1d3b
00000390: ec88 db3c 0c30 8fbc 7d65 26bd 4550 2f3e
000003a0: c895 91bd 12ef 9d3d 8079 e13c 2759 ac3d
000003b0: b61e 99ba 3dda 52bd f7f7 433d 0350 61bc
000003c0: 6411 61bd 8f2a d83d a558 c4bd 6d14 92bc
000003d0: cda6 eabc 39ba d53d 4999 563d 3b3f ae3d
000003e0: ab1a c0bd 71cf 2fbd 1822 253e 8f58 ed3c
000003f0: ad77 683d b6be 0e3d dcf4 e73d dfa9 d5bb
-0.008458257 -0.0519261 -0.029341644 -0.06726117 0.07491572 0.008569976 -0.07245721 -0.089115515
-0.010464907 -0.017417537 0.069836065 -0.053736247 0.1472595 -0.079955146 -0.067733906 -0.002910618
0.010772035 -0.012831306 0.008299321 -0.06336058 0.029524453 0.02846235 -0.12467155 -0.056725264
0.06979013 -0.0360382 0.070312425 0.08608532 0.035579935 -0.01703493 0.13972524 -0.11375126
0.096235834 -0.14370699 -0.07694468 -0.030407282 0.01748518 -0.060997758 -0.04094972 0.077337995
-0.00029303288 0.0081075905 0.14153375 0.08320169 0.16588911 -0.09040175 -0.07252768 -0.0260359
0.0019652836 0.09585246 -0.11275799 0.11063205 -0.026177147 -0.0585901 0.059546266 0.02628764
0.103004985 0.08362888 0.045614325 0.035489496 -0.00061837106 0.071462035 -0.07495309 0.10382687
0.14266118 -0.06195457 -0.11720201 0.044292245 0.09534019 0.110589154 0.09604589 -0.0010859327
0.11418827 -0.072844796 0.031195587 0.08258217 0.013816602 -0.07009653 0.034416437 -0.049526542
0.05097087 -0.05311002 -0.0112742875 -0.08110536 0.09505976 -0.049050935 0.027972184 -0.07232812
0.08688936 0.13564026 -0.09473496 0.06336858 -0.029812865 0.03930589 -0.0978635 0.025553903
0.016733661 -0.09095647 0.0029104059 0.030897627 -0.106437296 0.06352594 -0.09719565 0.08149371
-0.06647033 0.1566815 0.09669906 0.02340537 -0.04674513 -0.08884741 -0.039329883 -0.0149385305
0.07453141 0.103085816 -0.05219924 0.036370434 0.120469265 -0.020212475 0.14419316 0.11099551
0.026695257 0.06285892 0.061030354 0.0719619 -0.032070886 0.020332638 -0.0005528632 0.13378352
-0.061185658 -0.09946524 -0.08357756 -0.15054141 -0.09318625 0.0763055 -0.06532597 0.07989037
0.01365701 0.088462986 -0.079119086 -0.09218729 -0.04375576 0.0945781 0.013149915 0.011439654
0.096867844 -0.024873625 -0.054504927 0.048346054 -0.14606173 0.044702567 0.065778196 -0.017303547
-0.048103586 0.024078015 -0.051552776 0.057028726 0.07306032 -0.0805788 -0.1271175 0.004369764
0.025350913 -0.021731693 -0.088765904 -0.13690095 -0.05611473 0.034509066 -0.081040345 -0.047999468
0.006081533 -0.051716533 0.03030584 -0.0418994 0.053136963 0.03566975 0.08093334 -0.08279715
0.012966336 -0.06737474 0.042332873 0.053700496 0.089416705 -0.021357117 -0.109029695 -0.026288932
-0.007934004 -0.06671047 -0.12977028 0.054912064 -0.1183469 -0.20850839 -0.043040294 -0.05241577
0.04167408 -0.014430026 -0.049390923 0.057389744 -0.029267132 -0.06997039 -0.052220095 0.13605271
-0.0103135295 0.04277111 0.07752857 0.034089223 0.014609667 0.022425348 -0.0431427 -0.0036057348
-0.013918223 -0.038635008 0.06946697 0.10378749 0.057963885 -0.026814278 -0.020944193 0.009342478
0.04234169 -0.098090015 0.04014896 0.11959754 -0.030709676 0.069781505 0.08768218 -0.045953136
0.070367925 -0.10521435 -0.006512656 0.002407979 0.026798688 -0.017478965 -0.04062413 0.17120464
-0.07108647 0.07711615 0.027523756 0.08415442 -0.0011682126 -0.05147766 0.0478439 -0.013751986
-0.054948226 0.105549924 -0.0958722 -0.017832005 -0.02864399 0.1043591 0.052392278 0.08508154
-0.093800865 -0.04292244 0.16126287 0.028972892 0.056754757 0.034849845 0.11326 -0.0065204944

bias f4 [32]
00000000: 8f5d 08bd 26b2 d2bd 26a6 ba3d 0f77 ccbc
00000010: c18e c63d 2391 163e 7507 053d 0672 dabd
00000020: 2c76 27bd 3e0b 33bd e028 9ebd bff2 27be
00000030: 3231 24bd 26df 333e 6f92 dabd e004 a83d
00000040: e241 5ebd 982f 4d3e 1f16 1dbe da96 223e
00000050: ec5a 0b3e 79dd 413e ea19 7bbd 786c 1bbd
00000060: bf25 6fbd 8cb4 35bd c24a 20be 5fba 1a3e
00000070: e276 d7bd 832f f6bc 698b 0d3d c9eb b33d
-0.03329235 -0.10287885 0.091137215 -0.024959115 0.09695197 0.14703803 0.032477815 -0.106662795
-0.04088418 -0.043711893 -0.0772264 -0.16401194 -0.04008598 0.17565593 -0.10672461 0.08204055
-0.05426205 0.20037687 -0.1534047 0.15877858 0.13608903 0.18932141 -0.06130401 -0.03794524
-0.058385607 -0.044361636 -0.15653518 0.15110157 -0.10520722 -0.030051952 0.03455678 0.08785207

weight f4 [16, 32]
00000000: 8924 bcbb cfc6 dcbd 72f8 e63d 4318 153d
00000010: e039 8d3d 7f21 f93d 31a2 d73a dde2 e7bd
00000020: f88c e93c 460f 40be 121a 49bd 3402 9ebd
00000030: 948e 00be 1fc3 cd3d 10d3 a9bc 3ba4 9f3d
00000040: b3d4 d2bd df04 fa3c c8cd 01be 7ff6 193e
00000050: f334 093d b314 783d 83b3 e3bd 37c1 0fbe
00000060: ae54 aebd 1fb2 4ebe 5646 14be 4d2e 613d
00000070: 990a 19be a275 c9bd 4660 48be f11c 1bbe
00000080: f3cc f1bd 82a5 fabd 6cd3 0c3d 1795 bebd
00000090: 8d58 5f3d 47ac 523d d77e 30be 2ba4 aebd
000000a0: 0050 2abd 3392 0bbd 8e3b b5bd 7cf6 083d
000000b0: d396 22be 1144 6e3c 3fc2 38bd ef78 f93c
000000c0: 9162 a23d 3266 a93d 58f3 57be 4e65 aa3d
000000d0: 8a92 ae3d f27d b43d 3bf4 37bb fe4e d7bd
000000e0: 658e 0cbe 9d4d 2cbd a7ee debd 14ad 013e
000000f0: 7a7f c8bd e94d 8abd 8580 8abd 8132 4a3d
00000100: 840f 043e 1e40 fcbd ac42 0f3c 2f77 703d
00000110: e669 32be dfa5 3bbe 182e bd3c 90be 0cbc
00000120: 3f9d 083e e2fa 8a3b 8e14 df3d 7479 043e
00000130: 4522 7abd 040e 0bbe 90c2 443e f174 05be
00000140: 2e38 f03d 2e25 203d dd90 d83d c58a ca3c
00000150: 7b23 44bd bb26 c83d 7f8e 393e 3c54 f93d
00000160: 0f24 113e d9b5 b63d 932f 213e aaab 4f3c
00000170: 6dcc 8b3b ddb2 023e d543 233c 7969 e33d
00000180: a0da 353d 0443 0f3d b59b 91bd e10e 3b3e
00000190: 3fc8 a4bd d4ec 9dbd 2197 123c db13 3b3e
000001a0: b703 743d b10b 3e3b 4bd0 493e 0032 213e
000001b0: f4c2 93bd f83b 303c c990 873d 69b8 04bc
000001c0: b7e8 9cbc cedb a9bd 6a46 2c3e 1bdd 16be
000001d0: de99 15bd c193 283c a46a a53d 037e b33d
000001e0: bcad 3c3e 06df 2c3e 436b d9bc 7586 f9bc
000001f0: 843b f23d 6ff6 e0bc e769 233e e190 a6bb
00000200: f45f 933c 8e00 943d 810f 6b3d cbe4 1fbd
00000210: bbfe c03d 6709 813d 6cbb 0dbe 11eb e8bc
00000220: f2f0 953d 4f54 23bc 9ab3 f2bd 9156 acbd
00000230: dd6a 923c aa45 463e 0381 c03c 21bf 2c3e
00000240: 6c3f 10bd 8d4e 7e3d 275c 133d e75c c63b
00000250: 5698 5e3e d536 9a3d af5b 09be 9e13 04be
00000260: d290 84bd c966 1ebd 8549 14bd deeb 25bd
00000270: 5937 09be 9147 fbbd 1db7 17be f1fe 0cbe
00000280: 7e5f 8f3d 955a b23d 7e08 f2bd 10f9 f53d
00000290: 9991 03be 55f4 09be 2e9c 6e3d 3772 183d
000002a0: 53eb e23b 2c52 d13d c905 b93d 8040 013d
000002b0: 5fb2 9c3d 4634 0dbe de26 543d ba72 d3bd
000002c0: c148 b53d 7593 30be e697 c23c c4c5 cabd
000002d0: 0b1a 1bbe be26 23bd 8039 38bc c439 d03c
000002e0: 4fe3 74bd 4ca9 4a3d bd87 443d d031 0bbe
000002f0: e8e0 8ebd 27d0 8c3d a5fd 233d b20a 37bd
00000300: ee94 563e 6c5d 3e3e 55d3 5fbd a7c6 af3d
00000310: 9e9d a4bd ab0c 16be e091 7f3c b6a3 fdbb
00000320: 132c 593e 2d0b ca3d 83e9 073e 8b28 133d
00000330: 3ea2 0f3e bea5 81bd 3275 0c3e c106 a1bc
00000340: 0ad5 d7bd 893b d0bd 08cc 7a3d f05d 6fbd
00000350: 72a7 2fbd f01d 05bd 0f38 b03d 2257 353c
00000360: 0910 8e3d adc5 3c3e 09ac d23d 8ac9 ccbd
00000370: 81cb 343e 4726 503d 77d7 383e 5ec2 6e3d
00000380: 07bb 19be 7826 edbd 3fac ea3d 7d20 ac3d
00000390: cdc2 933d 70bc 243e 7fb6 2bbe b7ce e0bd
000003a0: 7de0 a43c 49f9 10bd 9d18 8ebc 6971 16be
000003b0: fb7e d0bd 857c 703e 2670 57bd 0f02 523c
000003c0: 2a4d ea3c 8710 63bd 937d 1d3d 5806 233e
000003d0: b9c5 353e a55f 133d 5b5a b3bd e202 21bd
000003e0: f2c2 90bc 59c0 09be 284a 453d 11b5 c53d
000003f0: 159b a2bd 6694 04be 5538 32bd 2db6 443e
-0.00574166 -0.10780107 0.11277856 0.03640009 0.068958044 0.12164592 0.0016451535 -0.113225676
0.028509602 -0.18755826 -0.04909713 -0.07715264 -0.12554389 0.10046982 -0.020730525 0.07794996
-0.102944754 0.0305199 -0.12676156 0.15035437 0.033497762 0.060566615 -0.111182235 -0.1403855
-0.08512245 -0.20185135 -0.14479956 0.054975796 -0.14945449 -0.0983689 -0.19567975 -0.15147759
-0.11806669 -0.12238599 0.034381315 -0.093057804 0.054527808 0.051433828 -0.17235886 -0.08527406
-0.0415802 -0.034074973 -0.0884925 0.03343819 -0.15877847 0.0145425955 -0.045107123 0.030453173
0.07928956 0.08271445 -0.21088922 0.083201036 0.08524044 0.08813085 -0.0028069157 -0.105131134
-0.13726194 -0.042066205 -0.10885363 0.1266368 -0.09789939 -0.067531414 -0.067627944 0.04936457
0.12896544 -0.12316917 0.008743923 0.058707412 -0.1742321 -0.18324994 0.023093268 -0.0085903555
0.13341235 0.0042413333 0.10892592 0.12936956 -0.06106784 -0.13579565 0.19214845 -0.13032891
0.117294654 0.039097957 0.105745055 0.024724374 -0.0478854 0.09773012 0.18120764 0.121742696
0.14173912 0.089214034 0.15740804 0.012675205 0.004266313 0.12763543 0.009964903 0.11104102
0.04439795 0.03497602 -0.07109777 0.18267395 -0.080460064 -0.07711187 0.008947165 0.18269293
0.059573855 0.0028998668 0.19708364 0.1574173 -0.07214919 0.010756485 0.066194125 -0.008100607
-0.019153936 -0.082938775 0.16823736 -0.14732783 -0.036523692 0.0102891335 0.08076981 0.08764269
0.1842565 0.16881952 -0.026540404 -0.030459622 0.11827758 -0.027461259 0.15958367 -0.005083189
0.01799009 0.07226668 0.057387833 -0.039036553 0.09423586 0.063006215 -0.13841027 -0.0284324
0.07321347 -0.009968831 -0.118506625 -0.08414949 0.017873222 0.19362512 0.023499018 0.16869785
-0.035216734 0.06208663 0.035976555 0.0060535553 0.21737799 0.0752999 -0.13413881 -0.12898108
-0.06472935 -0.038672242 -0.036202926 -0.040508144 -0.1340002 -0.122695096 -0.14815946 -0.13769127
0.070006356 0.087086834 -0.11818026 0.120103955 -0.1284851 -0.13472112 0.058254413 0.0372183
0.0069250255 0.10220751 0.090343066 0.031555653 0.07651209 -0.13789472 0.05179488 -0.10324617
0.08851767 -0.1724375 0.023754071 -0.09901002 -0.15146653 -0.03983187 -0.011244178 0.02541817
-0.05978709 0.04947786 0.047981013 -0.1359322 -0.06976491 0.068756394 0.040036816 -0.044687934
0.2095525 0.18590325 -0.0546449 0.08582812 -0.080378756 -0.1465327 0.015598744 -0.007740463
0.21208219 0.09865413 0.13272671 0.035927337 0.14026734 -0.06330441 0.13716581 -0.01965654
-0.10538681 -0.101676054 0.061229736 -0.058439195 -0.042884298 -0.032499254 0.08604442 0.011068137
0.06936652 0.18434782 0.10286719 -0.09999378 0.17655756 0.050817754 0.18050943 0.05829083
-0.15012752 -0.11579603 0.114586346 0.08404634 0.0721489 0.16087508 -0.16768835 -0.10976928
0.020126576 -0.035393987 -0.01734572 -0.146917 -0.101804696 0.23485 -0.052597187 0.012817874
0.028601248 -0.055435684 0.038449835 0.15920389 0.17751206 0.035979886 -0.08757468 -0.03930939
-0.017671082 -0.13452281 0.048166424 0.09653676 -0.07939736 -0.12947235 -0.043510754 0.1921012

bias f4 [16]
00000000: f327 793e 273d 643e b2b9 80bd 08f2 f9bc
00000010: 7e94 193d 77bf fa3d 9036 9b3d 9329 f93d
00000020: 4e4c 023c d5b8 1939 4f6b 853d 7f45 463b
00000030: 0b89 343e 0665 9e3d 276d f0bc 0cce 793e
0.24331646 0.22288953 -0.062854186 -0.030510917 0.03749513 0.1224355 0.07578766 0.12166133
0.007952763 0.00014660072 0.06514608 0.0030253825 0.17630403 0.077341124 -0.029348923 0.24395007

weight f4 [2, 16]
00000000: ba3d 57be caee d0bd a442 99bc 66e9 433d
00000010: c2fd eabd aea5 293e fc89 8e3e 1f40 58be
00000020: 495d 253e 17b5 4e3e 23b2 07bc 4dee 20be
00000030: 929b 12be 3070 123e fd2c 2f3d 5927 05bd
00000040: 58d6 e9bb 519c b03d e3fd efbd 9259 32bd
00000050: 7d35 b73c 1156 3dbd 7e57 1a3e 1381 61bd
00000060: 5d8e 8e3d 2d27 c63d 7a47 0ebe e04a 79be
00000070: 6885 073e 8499 6dbc 6fda 19bd 52de 4a3e
-0.2101964 -0.102017954 -0.018708535 0.047830008 -0.11474182 0.16567108 0.2783965 -0.2111821
0.16148867 0.20186268 -0.008282217 -0.15715905 -0.14317158 0.14300609 0.042767514 -0.032508228
-0.0071361475 0.08623565 -0.11718347 -0.043542452 0.022364372 -0.046224657 0.15072438 -0.055054735
0.069607474 0.09675441 -0.13894454 -0.24344969 0.13234484 -0.014501933 -0.03756183 0.19811371

bias f4 [2]
00000000: e67b 28be 7376 7e3e
-0.16453514 0.24849872
